MLP部分/best_acc_0.900.pth (torch, 633269 bytes, 14 tensors)

weight f4 [290, 361]
00000000: 03bc da3c d045 33bd eacc f0bc edd8 653c
00000010: ca47 27bd 7758 ecbc 322b a23c 0068 4d3d
00000020: 74d8 aa3a 5b52 42bd 502f 4d3b fefc 403d
00000030: 08a9 773c 4613 3f3d 8df2 da3c 57cc 98bc
00000040: 3660 d5bc 17ff 933b c58f 3f3d 550d cf3b
00000050: fe26 413d 8d38 f83c 6cec 323d 8e79 c83c
00000060: 63fc 15bd 6c3c c0bc e151 cd3c 591a 983c
00000070: d786 373d 8c29 fc3c b86b bdbc 23a1 4d3d
00000080: 5e37 47bc c5d6 a6bc 7132 dfbc efed 4dbd
00000090: cc5f 2ebd 0002 3d3d be9e 403d 72e3 493d
000000a0: 93ab 2d3d 490f 5fbc 222c b93c caa1 153d
000000b0: ff8c 87bc 20ca 48bd c30e 1e3c 12c1 a5bc
000000c0: b3d7 743b 5677 4dbd e38d 213d c437 14bd
000000d0: 4e4e c4bc 7f26 303d 2cff 003d a8ab c5bc
000000e0: 23f9 af3c f190 22bd 94ff f2bc 9f5d ff3c
000000f0: 3e89 36bd 9407 053c 0f83 4b3c 5a92 3c3d
00000100: 52aa c3b9 33d6 11bd 3c94 45bd 587f 833c
00000110: d622 edbc d0c5 22bd 261d 183d 6a52 b63c
00000120: 4498 98bc 52e6 faba 34a5 533d 7985 cbbc
00000130: c019 37bd 094d 4e3d a588 39bd cc2e 333d
00000140: 9adc 213a 41f9 943c 7579 4c3d df47 44bd
00000150: ff69 013d 8b76 28bd c1e2 4bba c37a 623c
00000160: 375d 1abd 5c3e 2bbc de28 963c 6b72 0bbd
00000170: fa6a a2bc 9cc7 953c 79f1 1d3d 25ad f8bb
00000180: 5943 d1bc b28a 043d 1c44 393d 5486 2c3c
00000190: 1c46 0fbd 7130 9ebc ef40 2fbd f2ea 9c3a
000001a0: 722c b93c 7721 41bd 8e1b 07bd 9ebc ea3c
000001b0: 3a5a 24bd 9ed4 b83c a307 ce3b ed63 d43c
000001c0: 22f5 e5ba 01ec b4bb f935 183d 195d 28bd
000001d0: ad71 2d3d ebdd 34bd 2858 903c a3b4 b5bb
000001e0: 00d6 7b39 224d a23c 08f2 9ebb a6d4 83bc
000001f0: 0c97 84bc f7dc fb3c 6343 d23b 8d22 3f3d
00000200: 23e6 09bd a751 7fbc 1003 223c 7ca5 32bd
00000210: 82be 74bc 6475 01bd 69c6 40bd d634 743c
00000220: 3ae4 dabc 0abc a0bc d0cc fabc a887 b8bc
00000230: 832d 49bd 2f65 1ebd 727e 66bb a616 01bb
00000240: 1b48 3ebd 1247 333c 92fe 493d aada a73c
00000250: fc75 fbbc 2a00 403d 0a4f efbb f070 aa3c
00000260: 1a51 d2bc 34f6 cd3b 9993 4ebd 7746 4e3c
00000270: bf78 0ebd 075f 74bc 8e4e 38bd 678b c83c
00000280: 8c2d 2bbd fd90 20bc ba58 163d ec6e 143c
00000290: 90e2 343d de08 90bb da6b 2ebd 55ea 32bd
000002a0: 274d c93c f4a9 f23c 0c27 8dbc 4760 083d
000002b0: 79c0 b43c e08b a1bc 4740 32bd 3504 3ebc
000002c0: 19b8 f4bc eae8 a93c 7985 123d f226 ed3b
000002d0: 3794 1f3d 27b6 403d bf37 55bd e3b4 8dbc
000002e0: c750 773c a671 143d d3d2 4a3d 74b3 ae3b
000002f0: cc69 9a3b cf4d 10bd 8534 443d 0afa 47bd
00000300: dc09 d1bb b216 153d ceae 89bc f56a 10bd
00000310: f4db 733b f719 48bd 206a d33c cfdb 57bd
00000320: 2712 433c 879e 39bd 3a8d d6bc feb7 49bd
00000330: ca72 f4bc 29ea be3c 4f1d 3ebd 3355 453c
00000340: ac27 71bc 3a2d b6bc 2633 473d 395d 76bb
00000350: 16a5 4bbc 3678 40bd 058f 3e3d 3a04 e6bc
00000360: 8cfa bf3c 061e 8dbb bb2b 11bc ecf9 343d
00000370: ccdc ca3c fb82 093d 3c11 9cba 2065 953c
00000380: 2fc5 fb3b 6cfb 3c3b a139 36bb 3c12 35bc
00000390: 3f8e 2b3c 5020 1ebd ae86 993c 7c5d eebc
000003a0: 03b9 c5bc 7a3f 513d 9a6f 3fbd 93e0 a6bb
000003b0: 022c 46bc af4a bd3b a2fb 36bd 4e31 93bc
000003c0: 706d b53b fa0b 983c 50e3 3fbc 067c dbbc
000003d0: 0068 b5bc b002 6e3c b24e a73a 7448 26bd
000003e0: f771 3ebd d2f5 113d e2d1 103c 846b fd3c
000003f0: 36f3 0ebd bedb 1d3d e628 9abc 7e5a 3ebb
0.02670098 -0.04376775 -0.029394586 0.01402877 -0.040839948 -0.028850777 0.019795988 0.05014801
0.0013034479 -0.04744182 0.0031308718 0.047116272 0.015115984 0.04664924 0.026726985 -0.018652124
-0.026046854 0.004516493 0.04676797 0.006318728 0.047156326 0.030300403 0.0436825 0.024472024
-0.036617648 -0.023466311 0.025063457 0.018567251 0.044806328 0.03078153 -0.023122653 0.0502025
-0.012159197 -0.020366082 -0.027245732 -0.05027574 -0.042571828 0.046144485 0.04702639 0.049289174
0.042399954 -0.013614484 0.022604052 0.036531247 -0.016546724 -0.049020886 0.009647074 -0.020233665
0.0037360012 -0.050162636 0.039441954 -0.036185995 -0.02396312 0.043005463 0.03149335 -0.024129704
0.021481102 -0.03968901 -0.029662885 0.031172572 -0.044564478 0.008119483 0.0124213835 0.04603801
-0.00037320197 -0.035604667 -0.04823707 0.016051933 -0.028947275 -0.03973943 0.037137173 0.022256095
-0.018627293 -0.0019142127 0.05167122 -0.024843918 -0.04470229 0.050366435 -0.04529633 0.0437458
0.0006174535 0.01818526 0.049920518 -0.047920104 0.031595226 -0.041128676 -0.00077776244 0.013823214
-0.037686553 -0.010451879 0.018330034 -0.034044664 -0.019826401 0.018283658 0.038560364 -0.007589
-0.02554481 0.032358833 0.04523097 0.010530073 -0.03497897 -0.019310208 -0.042786535 0.0011971875
0.022604201 -0.047151055 -0.032985263 0.028654393 -0.04012511 0.022562321 0.0062875315 0.025926555
-0.0017544369 -0.005521298 0.037160847 -0.04110441 0.042344738 -0.04415695 0.017620161 -0.005545215
0.00024016947 0.01981217 -0.0048506297 -0.01609261 -0.016185306 0.030745013 0.0064167245 0.04666381
-0.03366674 -0.015583432 0.0098884255 -0.04361485 -0.014937999 -0.031606093 -0.04706422 0.014905175
-0.026720155 -0.019620914 -0.03061524 -0.022525623 -0.04911567 -0.038670715 -0.0035170582 -0.0019697337
-0.046455484 0.010942237 0.049315043 0.02049001 -0.030695908 0.046875156 -0.0073031234 0.020805806
-0.025673438 0.006285453 -0.05043373 0.012590042 -0.03478312 -0.014915234 -0.04499679 0.024480535
-0.041791484 -0.009800193 0.03670571 0.009059649 0.04416138 -0.0043955883 -0.042583324 -0.043680508
0.024572922 0.029622056 -0.017230533 0.033294942 0.022064434 -0.019720018 -0.04351833 -0.011597683
-0.02987294 0.020740945 0.03577182 0.0072373087 0.038959708 0.047048714 -0.052055117 -0.017298168
0.015094942 0.036241196 0.049517464 0.005331451 0.004712319 -0.035230454 0.04790165 -0.04882244
-0.006379349 0.036398597 -0.016806986 -0.035258252 0.003720996 -0.048852887 0.02580744 -0.05269986
0.011906183 -0.0453172 -0.026190389 -0.049247734 -0.029839892 0.023305016 -0.04641467 0.012044239
-0.014718931 -0.022238363 0.048632763 -0.0037592186 -0.012429496 -0.046989642 0.046523113 -0.028078187
0.0234349 -0.0043065576 -0.008860524 0.044183657 0.024763487 0.03357218 -0.0011906992 0.018236697
0.007683418 0.0028836383 -0.0027805346 -0.011051711 0.010470926 -0.038605034 0.018740978 -0.029097311
-0.024136072 0.051085927 -0.04673729 -0.0050926893 -0.012095453 0.0057767252 -0.04467357 -0.017967846
0.0055367276 0.018560398 -0.01171191 -0.026792537 -0.022144318 0.014527008 0.0012764542 -0.04059644
-0.046495404 0.035634823 0.008839102 0.030935057 -0.034899913 0.03853964 -0.01881833 -0.0029045637

bias f4 [290]
00000000: 724f 51bd 5a7c 28bc 3eb5 153c 906f 3abc
00000010: 32ed 3cbc dc98 9f3b f884 4a3d becb 493d
00000020: d6bc 9cbc 1aa0 31bd c0f2 233d 314b 2d3c
00000030: 28a5 cc3c 5aa4 a83c ecff bb3c b1b2 14bc
00000040: 2a85 1b3d 6e9d 863c f82a 503d 8603 93bc
00000050: 4c1c 3ebd 2c3c 153d 9a44 043d ac7d f23c
00000060: 7510 e3bc 3cb8 ea3c e694 f03a 6032 e9bc
00000070: 7812 0fbd 8eff 553d b8cd 89bc 7b3a 7cbc
00000080: d4e7 f3b9 091d 313d 6586 303d dc8b 1a3d
00000090: 7970 b3bc 1ca5 593c 00cb 363d 9808 323d
000000a0: 5046 3fbd 5a1d ac3c 4dea ec39 3c36 2abd
000000b0: 38ae 3c3c 8ad2 28bb 6c3f 3abd d48b 0f3d
000000c0: 4f82 1639 c4df 3a3d be86 303d 40d1 0cbd
000000d0: 3c48 b43c c920 ce3c 96d1 efbc 0ff3 efbc
000000e0: 4eec 093c 712e b2bb 4639 253d aa08 003d
000000f0: 64b7 99bc 26a9 08bc 961e 023d b46a bb3c
00000100: b2c7 693c a9dd 443c 7c49 3dbc 7e1f 033d
00000110: 0c93 8c3b e40f 103c 28eb 26bd e9e0 0cbd
00000120: b24c b03c 681f 2cbd ee9c 893c 17be 0f3c
00000130: 5a38 89bc 953c 4bbd b8dc 3a3d 1884 42bd
00000140: 09ba c8bc cf1e efbc 7009 353c 5725 e1bb
00000150: 655f 16bc f221 4a3d 430c 37bd bf5c 5b3c
00000160: 6532 103d 3ae6 323d d486 c3bb 0490 e2bc
00000170: 17d3 40bc 5e2e 8a3c 4acd 2bbd 00e7 f73c
00000180: 241d 4f3d f853 073d 1564 0bbb 2bb2 e73a
00000190: 02ff 17bd be34 7fbc c412 cd3c 6895 38bc
000001a0: 6e09 06bd 5a0f 9bbc de09 1c3c c36b b3bc
000001b0: f47f fbbc aadb 35bb 30ca 723c 3bcb 1f3d
000001c0: 8540 ff3a 2d69 f6bc a2e8 8d3c 6a24 05bc
000001d0: 148e 28bd 8ae0 4c3d 7027 f03c d29d ecbc
000001e0: 682a bcbc 72c5 28bd 9cc9 34bd 0ad2 37bd
000001f0: 539e d7bc c26e 983c fec9 37bd 3b58 cdbb
00000200: 7410 71bc 9a61 b2bb a4ca 19bd 33cf 44bd
00000210: 4ad4 403c d4fc 81bc 4910 4e3d 2ebb 043c
00000220: 817c 043b 484c 0d3d 186c bd3c 70a6 193d
00000230: ca23 50bc da52 4cbc 8e5f 923c 9aea 46bd
00000240: 5aff 16bc a6b9 093c bc44 09bd 21b4 47bd
00000250: 8aee c4bc d28a 113d f677 cd3c 46e3 2ebc
00000260: a1a1 9ebb c64f c2bc b2ba 2b3d 5e9f a33c
00000270: 06bf 9bbc 7834 983c 5c9b 4c3d a71c e5bb
00000280: 9a17 0abc a481 e7bb 409c da3c ab37 b0bc
00000290: 5fc8 e1bc f525 1ebc ae5d 133d f583 4abd
000002a0: d004 46bd 40b3 f83c 39aa 21bd 728e 473d
000002b0: d8b0 12bd 14f5 3fbd caa9 90bb be08 32bd
000002c0: 35df d5bc e334 f33b 5aa2 48bd d0ef 113c
000002d0: 59dc da3c 84bd 42bc 3c13 6ebc 68c1 26bd
000002e0: 18ff e93c 1aab 46bd a449 293d ed3a e23c
000002f0: 5e57 22bc 0ac3 d2bc 86b7 d4bc 1490 f23c
00000300: 5ad2 983c 6658 e9ba fad4 08bd b05c 1cbb
00000310: e2ea 133c 8232 533d 1b12 24bd 77a0 8f3c
00000320: 13fa 103d 8895 05bd 6a4b 223d 1213 3cbd
00000330: 90c8 d5bc f085 3f3d c21a d8bc e4b7 363d
00000340: 5c5b 3b3d 10af 46bc 8f72 ff3b 78df 4dbd
00000350: 96c5 9dbc ccf9 94bb 638d 40bd 2104 cbbc
00000360: 82f0 14bc b29c 1d3d d946 44bc 3259 993c
00000370: b2a2 c03c e0cd 4aba 3137 e43c 88b7 4b3a
00000380: 67cf adbc 1c65 ddbc fc41 3bbc 9e68 a33c
00000390: 6ed2 923c a251 15bd 3641 26bd d41b 0ebc
000003a0: f4d3 b83c 818b 42bd 4556 40bd df3e dcbb
000003b0: b08b d0bc ac65 fcbc d690 7b3c 52a1 3d3d
000003c0: 6e6e 2abd 23b1 70bb 9496 113d 1490 1dbd
000003d0: aa49 42bd e6e1 3b3d f049 443d 7a57 16bc
000003e0: e3ba c1ba b695 1b3c 5c4c 9cbc b82b 95bc
000003f0: 9063 4d3d 8292 f2bc 863d 203d 3ed3 123c
-0.051101156 -0.010283554 0.00913745 -0.011379138 -0.011531161 0.004870517 0.049443215 0.04926657
-0.019133013 -0.043365575 0.040026426 0.010577009 0.024981096 0.020586181 0.022949181 -0.0090758065
0.037968792 0.01643249 0.05082223 -0.017946016 -0.046413705 0.036434337 0.032291986 0.02960094
-0.027717808 0.028652303 0.0018354922 -0.028466403 -0.034929723 0.05224567 -0.016821727 -0.015394802
-0.00046521297 0.04324058 0.04309692 0.037731037 -0.021904217 0.013283994 0.04462719 0.043465227
-0.046697915 0.02101009 0.00045187995 -0.04155563 0.011516146 -0.0025760257 -0.04547064 0.03504546
0.00014353658 0.045623556 0.04309725 -0.034379244 0.0220071 0.025162118 -0.029274743 -0.029290704
0.008418156 -0.005437665 0.040337823 0.031258263 -0.018764205 -0.008341109 0.03176745 0.022878028
0.0142688025 0.0120157385 -0.011553165 0.032012455 0.0042899903 0.008792851 -0.040751606 -0.03439418
0.021520946 -0.04202214 0.016798463 0.008773348 -0.016750503 -0.049618322 0.04562065 -0.047489256
-0.024502771 -0.029189495 0.011049613 -0.0068709063 -0.009178017 0.04934878 -0.044689428 0.013388812
0.03520431 0.043676592 -0.0059670005 -0.027656563 -0.011769078 0.016867813 -0.041943826 0.030261517
0.0505649 0.033039063 -0.002126937 0.0017677 -0.03710843 -0.01557654 0.025033362 -0.01126609
-0.032723837 -0.018928219 0.009523837 -0.02190197 -0.030700661 -0.0027749338 0.014818713 0.039012175
0.0019474184 -0.030079449 0.017322842 -0.008126358 -0.04115112 0.050018825 0.02931568 -0.028883848
-0.02296944 -0.041203924 -0.044137582 -0.044878043 -0.026320612 0.018607501 -0.04487037 -0.0062666214
-0.014713395 -0.005443764 -0.03754677 -0.048049163 0.011769364 -0.015867628 0.0503085 0.008101268
0.0020215812 0.034496576 0.023122832 0.037512243 -0.012703845 -0.012470925 0.01786783 -0.048563577
-0.009216154 0.008406078 -0.033512816 -0.04875577 -0.024039526 0.03553278 0.025081616 -0.010674303
-0.004841045 -0.02371968 0.041926093 0.019973453 -0.019011986 0.018579707 0.04995285 -0.006991941
-0.008428479 -0.007065015 0.026685834 -0.02151092 -0.027561365 -0.009652604 0.03597801 -0.04944225
-0.048344433 0.03035891 -0.039468978 0.04871983 -0.035813183 -0.046864584 -0.0044147717 -0.04346537
-0.02610741 0.007422076 -0.048982956 0.008907273 0.026716398 -0.011886004 -0.014530953 -0.04071179
0.028564021 -0.04850302 0.041329995 0.027615989 -0.009908525 -0.025727767 -0.025966417 0.029609717
0.018654991 -0.0017802834 -0.033406235 -0.0023858957 0.009028168 0.05156184 -0.04005633 0.01753257
0.03539474 -0.032613307 0.0396227 -0.045916624 -0.026096612 0.046758592 -0.026379947 0.044608966
0.045741424 -0.012126699 0.007795639 -0.050261945 -0.019259255 -0.0045463797 -0.047009837 -0.024782242
-0.009090545 0.038479514 -0.011979782 0.01871929 0.02351508 -0.0007736366 0.027858349 0.0007771184
-0.021217061 -0.027025752 -0.011429306 0.019947346 0.017922606 -0.036454804 -0.040589534 -0.008673627
0.022562005 -0.047496323 -0.046957273 -0.006721362 -0.025457233 -0.0308102 0.015354356 0.046296425
-0.04160922 -0.0036726675 0.035543993 -0.03846748 -0.047433533 0.04586973 0.047922075 -0.0091761295
-0.0014780428 0.009496143 -0.01907938 -0.018209323 0.05014378 -0.029610876 0.039121173 0.008961497

weight f4 [290]
00000000: 25ee 7f3f 582c 803f ccf4 7f3f a0ec 7f3f
00000010: 1102 803f 81f2 7f3f 0c10 803f dbfd 7f3f
00000020: 49f6 7f3f 60cb 7f3f 24fb 7f3f a7e1 7f3f
00000030: 3cfc 7f3f 41cc 7f3f ab06 803f aa04 803f
00000040: d7dc 7f3f 5d08 803f e728 803f 4dea 7f3f
00000050: 58eb 7f3f 4400 803f 6406 803f 29f4 7f3f
00000060: 4cf6 7f3f 2ed9 7f3f 2efb 7f3f 37e4 7f3f
00000070: 79cf 7f3f 2fe4 7f3f 94d8 7f3f 1fe6 7f3f
00000080: ef07 803f 6f06 803f 51f0 7f3f cb1e 803f
00000090: 8202 803f 3bb8 7f3f d504 803f 08f1 7f3f
000000a0: 1c08 803f e0d9 7f3f f383 803f cfeb 7f3f
000000b0: 16f6 7f3f 64f9 7f3f a7d5 7f3f 7a05 803f
000000c0: ebf3 7f3f 7dfa 7f3f 99f8 7f3f 4f03 803f
000000d0: c7ce 7f3f 23bb 7f3f 5e17 803f 34d4 7f3f
000000e0: aed2 7f3f 66f0 7f3f 69d6 7f3f a4b5 7f3f
000000f0: 6da1 7f3f 74ee 7f3f 49fe 7f3f 250d 803f
00000100: d602 803f cfd4 7f3f 1c2a 803f a9d6 7f3f
00000110: 52d0 7f3f 87f7 7f3f 4719 803f 4e13 803f
00000120: f3e2 7f3f 62e4 7f3f f1f5 7f3f 990e 803f
00000130: ebb8 7f3f 1601 803f b1c3 7f3f 2938 803f
00000140: dde3 7f3f 3300 803f 05fb 7f3f 9dd4 7f3f
00000150: caf3 7f3f e4ef 7f3f 15d1 7f3f 8efe 7f3f
00000160: 45e1 7f3f 1211 803f 6f07 803f 3bd8 7f3f
00000170: 1bdc 7f3f 53f4 7f3f 5fde 7f3f bfa8 7f3f
00000180: e80c 803f a2fc 7f3f a7bc 7f3f 30f9 7f3f
00000190: f0d5 7f3f 3a05 803f 0e00 803f 2beb 7f3f
000001a0: 1d1a 803f 94f8 7f3f e51b 803f b900 803f
000001b0: 8f02 803f dce6 7f3f c8d1 7f3f 28e5 7f3f
000001c0: ec00 803f 58c3 7f3f 6f12 803f 60fc 7f3f
000001d0: 4ddd 7f3f fbe8 7f3f a0c4 7f3f ab2f 803f
000001e0: a2e0 7f3f 76fd 7f3f 3fff 7f3f a6cc 7f3f
000001f0: 9aed 7f3f 5c36 803f f0fc 7f3f 71e5 7f3f
00000200: c103 803f 14e9 7f3f 1a0b 803f de37 803f
00000210: 32f0 7f3f e5cc 7f3f ab08 803f db0e 803f
00000220: 0a07 803f dcd0 7f3f c712 803f e514 803f
00000230: 3004 803f b412 803f 5420 803f 6bc0 7f3f
00000240: 00d0 7f3f 16fc 7f3f 26e2 7f3f 26ec 7f3f
00000250: 8108 803f d409 803f 56f1 7f3f 8cdd 7f3f
00000260: 8d00 803f 44dc 7f3f 1cf2 7f3f eed7 7f3f
00000270: 5910 803f e9dc 7f3f 57d7 7f3f 5eda 7f3f
00000280: 7c28 803f 9c02 803f 61e2 7f3f 8ac7 7f3f
00000290: c102 803f 0907 803f f905 803f 0beb 7f3f
000002a0: df16 803f 1ecb 7f3f 8709 803f 56e0 7f3f
000002b0: d612 803f 5005 803f b7fe 7f3f 9212 803f
000002c0: 07ee 7f3f 0edf 7f3f a9e8 7f3f 2504 803f
000002d0: 2400 803f d2f8 7f3f 3aea 7f3f b104 803f
000002e0: 64f2 7f3f d407 803f a413 803f 0c3e 803f
000002f0: ffff 7f3f 8505 803f f4eb 7f3f b9f4 7f3f
00000300: 39e2 7f3f f4f8 7f3f 95fc 7f3f 8dde 7f3f
00000310: a0c9 7f3f 6aea 7f3f e8d2 7f3f b6f3 7f3f
00000320: 5feb 7f3f b02c 803f 3d14 803f 3cc1 7f3f
00000330: de01 803f 89e4 7f3f 9ff9 7f3f 4007 803f
00000340: 22f1 7f3f ffee 7f3f d37a 803f 45f5 7f3f
00000350: 26bc 7f3f edf3 7f3f 5405 803f 8603 803f
00000360: 04b5 7f3f 31db 7f3f 20fb 7f3f dcf7 7f3f
00000370: a90c 803f 2313 803f 74c3 7f3f 8be1 7f3f
00000380: cace 7f3f 94f5 7f3f 911f 803f c506 803f
00000390: 97c7 7f3f 2d02 803f 7aa9 7f3f 06e7 7f3f
000003a0: c42a 803f 94d3 7f3f 1ff6 7f3f 53f3 7f3f
000003b0: 6cfd 7f3f 4af9 7f3f 761b 803f 4ef6 7f3f
000003c0: ba08 803f dcf5 7f3f 9bf3 7f3f f9d5 7f3f
000003d0: 8ff8 7f3f 18d7 7f3f 4f00 803f 800a 803f
000003e0: 80d9 7f3f 97f6 7f3f b1ec 7f3f 1b05 803f
000003f0: 421d 803f f304 803f 0215 803f a331 803f
0.99972755 1.0013533 0.99982905 0.99970436 1.0000631 0.99979407 1.0004897 0.9999673
0.99985176 0.999197 0.99992585 0.99953693 0.99994254 0.9992104 1.0002035 1.0001423
0.9994635 1.0002552 1.0012482 0.9996689 0.9996848 1.0000081 1.000195 0.99981934
0.99985194 0.99940765 0.99992645 0.99957603 0.99925953 0.99957556 0.99939847 0.9996051
1.0002421 1.0001963 0.9997607 1.0009397 1.0000765 0.9989049 1.0001475 0.9997716
1.0002475 0.99941826 1.0040268 0.9996919 0.9998487 0.99989915 0.9993538 1.0001671
0.99981564 0.9999159 0.99988705 1.000101 0.9992489 0.9989492 1.0007131 0.9993317
0.99930847 0.99976194 0.9993654 0.99886537 0.9985569 0.99973226 0.99997383 1.0004011
1.0000865 0.99934095 1.0012851 0.9993692 0.99927247 0.9998707 1.0007714 1.0005891
0.9995567 0.9995786 0.9998465 1.0004455 0.9989154 1.0000331 0.99907976 1.0017139
0.99957067 1.0000061 0.999924 0.999338 0.9998137 0.9997542 0.9992841 0.99997795
0.9995311 1.000521 1.0002269 0.99939317 0.9994523 0.99982184 0.99948686 0.9986686
1.0003939 0.9999486 0.99897236 0.99989605 0.9993582 1.0001595 1.0000017 0.9996821
1.0007969 0.99988675 1.0008513 1.000022 1.0000781 0.9996164 0.99929476 0.9995904
1.0000281 0.99907446 1.0005625 0.9999447 0.99947053 0.99964875 0.999094 1.0014547
0.9995214 0.99996126 0.9999885 0.99921644 0.99971926 1.0016589 0.99995327 0.99959475
1.0001146 0.99965024 1.0003388 1.0017049 0.99975884 0.9992202 1.0002645 1.0004534
1.0002148 0.9992807 1.000573 1.0006377 1.0001278 1.0005708 1.0009866 0.9990298
0.9992676 0.9999403 0.9995445 0.9996971 1.0002595 1.0002999 0.99977624 0.9994743
1.0000168 0.99945474 0.99978805 0.9993886 1.0004989 0.9994646 0.9993796 0.99942577
1.0012355 1.0000796 0.999548 0.9991385 1.000084 1.0002147 1.0001823 0.9996802
1.000698 0.9991931 1.0002908 0.99951684 1.0005748 1.0001621 0.9999804 1.0005667
0.99972576 0.9994973 0.99964386 1.0001265 1.0000043 0.99989045 0.99966776 1.0001432
0.99979234 1.0002389 1.0005994 1.0018935 0.99999994 1.0001684 0.9996941 0.9998279
0.99954563 0.9998925 0.99994785 0.9994896 0.9991703 0.9996706 0.9993119 0.9998125
0.9996852 1.0013638 1.0006176 0.9990423 1.000057 0.9995809 0.99990267 1.0002213
0.99977314 0.99974054 1.0037483 0.99983627 0.99896467 0.99981576 1.0001626 1.0001075
0.9988558 0.99943835 0.9999256 0.9998758 1.0003864 1.000584 0.9990761 0.99953526
0.9992491 0.999841 1.0009633 1.0002066 0.99913925 1.0000664 0.99867976 0.9996189
1.0013051 0.9993222 0.99984926 0.9998066 0.99996066 0.9998976 1.000838 0.99985206
1.0002663 0.99984527 0.9998109 0.9993587 0.99988645 0.9993758 1.0000094 1.0003204
0.99941254 0.9998564 0.9997054 1.0001558 1.0008929 1.000151 1.0006411 1.0015148

bias f4 [290]
00000000: 740f adb9 befb 123a 6fdf 0939 e713 c5b9
00000010: dae4 f639 2872 3ab9 ef93 3238 2490 6939
00000020: ba8a 8539 9e3b 13ba e9f4 0dba 85d9 e9b7
00000030: 025b 8bba 2041 20b9 d376 433a 476a a7b9
00000040: 0750 efb9 a20b abba 2f70 043a 74c6 c5b9
00000050: 667a e1b9 fcae 3eb9 01b1 663a 768d 92b9
00000060: c30c d5b9 fd29 c5b9 3689 1dba 1a4c 74b9
00000070: 5e9e 9db9 5b18 edb9 11c7 09ba 1cb9 abb9
00000080: d81a aeb9 8d03 e3b7 e79b 0fb9 4cbc d538
00000090: 5cd1 363a 57d2 65ba e024 6a38 fd67 03ba
000000a0: 2ad2 4139 d65c 54b9 3402 493b e78b 82b8
000000b0: e232 e7b9 2a11 b2b8 9a34 0db9 ad59 0a3a
000000c0: efe7 11b8 c7dd c0b8 2aea 9739 ed4d 8e38
000000d0: b4fd 23b9 332d f2b9 d7d4 f639 100b 30ba
000000e0: 9714 c3b9 b49a a9b9 390c 44ba 9ea8 55ba
000000f0: cd24 0aba 0435 87b9 806a 9a39 a37b 9fb8
00000100: 34f8 82b8 8a00 4fba 8fea 333a 2f71 2dba
00000110: 5d1f 92b9 f07f a0b9 af47 ed39 7013 0539
00000120: fd4d ecb9 6268 75b9 41f1 1cba fe58 113a
00000130: a0fb 3eba 623d beb7 d52c 14ba a758 25ba
00000140: dbcd 83b8 c34c c235 2069 feb8 419a fdb9
00000150: c415 8339 5e7b 3b38 e735 eab9 72d5 b239
00000160: a110 4538 5bd3 0c3a 1236 3d3a e445 f339
00000170: edd7 84ba 060c b2b8 32ac 0639 7733 80ba
00000180: f90d 613a a58e 28b9 12bd d2ba c438 8337
00000190: 7d84 cfb9 aa9c ac39 040c 0f3a fd00 7ab9
000001a0: 7e72 0a3a cec5 4ab7 1ea2 183a cff1 87ba
000001b0: a45b 4139 8151 53b8 7bbd d2b9 d9e9 1cb7
000001c0: d7cd 25b9 c77e b8b9 4415 f139 eebb 5439
000001d0: 31d3 2cba 9d70 74b9 0cc4 08ba 0c34 b83a
000001e0: 5546 6db9 6a4d 85b9 99e9 4638 e993 46ba
000001f0: a665 85b9 556f 003a 81b9 9938 70fa cdb9
00000200: 3c73 e2b4 ccb3 31b6 77a0 6db9 a5eb 7d3a
00000210: 4a37 85b8 ccc9 19ba 7334 2039 2530 a039
00000220: b9d9 2239 2492 d4b9 dd94 6f38 da4b 7c3a
00000230: e516 243a 470c 223a a2af 6839 f47c 1aba
00000240: 2c8e b4b9 a0e8 2e38 4e3d 97ba 5d30 ad38
00000250: 7f38 d838 8499 1eba 70cb e0b8 39f3 d338
00000260: 3a7e 133a 83b1 13ba 1fdb cab8 c5e0 56b9
00000270: 507e 8938 e8fc b338 4245 29ba 2b07 0cb8
00000280: 354f 623a 4dad 2839 3e24 9fb8 40f6 20ba
00000290: f4b9 94b9 9cef a639 4134 82b8 f3bb a1b9
000002a0: c220 fdb9 c77f 6eb9 d8cb c138 9d56 3eba
000002b0: 5e90 9539 be36 fb39 7f57 9cb7 0457 283a
000002c0: 8802 89b9 a8ac f6b9 fa4c 23ba bd0b 6f3a
000002d0: d923 bcb9 aad3 2bb9 0f04 8eb9 6b1f c0b7
000002e0: 1b1b 2939 6773 9db9 137a 8039 0c6d c53a
000002f0: 6115 deb7 3e87 c037 fed7 f2b8 fd83 0eb9
00000300: b344 0db9 8821 0e39 275b a2b9 7676 d7b9
00000310: b2b7 bbb9 8d85 ecb9 f582 1cba 4a14 8db9
00000320: 02fd a1b9 cea9 513a 8d9a 0a3a 1092 fbb9
00000330: 9ac4 6239 5881 0aba 85e8 5339 ee60 a339
00000340: 6ce5 8cb9 8c0f 82b9 493a 0e3b 077f 88b9
00000350: 490b 70ba 68ea 82b9 4868 e436 e761 7739
00000360: deda a3b9 66de 40ba d256 afb9 8800 9038
00000370: 564f 08ba b124 bc3a 6e97 fab9 273f a6b9
00000380: 5236 27ba 9345 24ba e210 383a bfef 1eb9
00000390: a73a aab9 8fcb 47ba 922e 2bba 3a53 3e37
000003a0: 36cb ad39 65f7 c4b9 0e96 f6b9 d64a 08b9
000003b0: 9fe6 d1b9 a565 abb9 133e 8238 d822 b5b8
000003c0: 6dc7 f939 1b6c c938 e1a2 80b9 76af deb9
000003d0: bc36 c738 c445 85b9 09da 9ab8 7e45 92b8
000003e0: 61f6 0739 f15f 3d38 93ba 273a 64a7 793a
000003f0: 9b08 d839 3983 9f38 bb40 0a3a 3c6c 273a
-0.00033008645 0.00056069705 0.00013148574 -0.00037589596 0.00047091284 -0.00017780869 4.257628e-05 0.00022274308
0.00025471096 -0.00056164886 -0.00054152176 -2.7877055e-05 -0.0010631981 -0.0001528305 0.0007456366 -0.00031931905
-0.00045645257 -0.0013049731 0.0005052117 -0.00037722627 -0.00043006538 -0.00018184999 0.00088001793 -0.00027952687
-0.00040636034 -0.00037606052 -0.0006009521 -0.00023298003 -0.00030063366 -0.0004522231 -0.00052557985 -0.0003275358
-0.00033207866 -2.7062162e-05 -0.00013695621 0.000101917045 0.0006973946 -0.0008767 5.582429e-05 -0.0005012749
0.00018484207 -0.0002025248 0.003067148 -6.224942e-05 -0.00044097664 -8.4908985e-05 -0.00013466403 0.0005277645
-3.47867e-05 -9.196583e-05 0.0002897543 6.7856025e-05 -0.00015639403 -0.00046191513 0.00047079354 -0.00067155156
-0.0003720864 -0.00032349455 -0.0007478628 -0.0008150431 -0.0005269766 -0.00025788706 0.00029452518 -7.60474e-05
-6.2451145e-05 -0.00078965037 0.000686326 -0.0006616292 -0.00027870658 -0.000306129 0.0004525757 0.0001269111
-0.00045071534 -0.00023403906 -0.00059868774 0.0005544572 -0.000728542 -2.2678349e-05 -0.00056524324 -0.0006307461
-6.28491e-05 1.4476467e-06 -0.00012131245 -0.00048370849 0.00025002484 4.469917e-05 -0.00044672118 0.00034109835
4.6983947e-05 0.00053720706 0.0007217835 0.00046400644 -0.0010135152 -8.489941e-05 0.00012843384 -0.0009780963
0.0008585151 -0.00016074868 -0.0016078076 1.564285e-05 -0.00039580828 0.0003292312 0.00054568076 -0.00023842226
0.0005281343 -1.2086193e-05 0.0005822497 -0.0010371747 0.00018440053 -5.0382227e-05 -0.00040195495 -9.3527715e-06
-0.00015812308 -0.0003518967 0.00045982946 0.00020287905 -0.0006592749 -0.00023311605 -0.00052172015 0.0014053597
-0.00022628282 -0.00025425415 4.7424433e-05 -0.0007575141 -0.0002544347 0.0004899402 7.330161e-05 -0.00039287237
-4.2179624e-07 -2.647971e-06 -0.00022661859 0.0009686298 -6.3522326e-05 -0.0005866557 0.00015278328 0.0003055345
0.00015530632 -0.00040544674 5.712068e-05 0.000962434 0.0006259515 0.0006181639 0.00022190672 -0.0005893253
-0.00034438202 4.170148e-05 -0.0011538656 8.258291e-05 0.00010310206 -0.0006050097 -0.000107190455 0.00010106568
0.0005626414 -0.0005634056 -9.672925e-05 -0.00020492364 6.5561966e-05 8.5824926e-05 -0.00064571586 -3.3385277e-05
0.00086330186 0.00016086288 -7.5884614e-05 -0.000614021 -0.00028367306 0.0003184051 -6.208616e-05 -0.00030848346
-0.00048280327 -0.0002274505 9.240926e-05 -0.0007260831 0.00028527057 0.00047915237 -1.8637393e-05 0.0006421658
-0.00026132562 -0.00047049415 -0.0006229427 0.00091188756 -0.00035884863 -0.00016386682 -0.00027087374 -2.2902814e-05
0.00016127194 -0.00030031355 0.00024505015 0.0015062406 -2.6474418e-05 2.295116e-05 -0.00011579691 -0.00013591345
-0.000134724 0.00013554667 -0.00030966962 -0.00041096256 -0.00035804283 -0.0004511293 -0.0005970442 -0.00026908732
-0.00030896818 0.000799802 0.0005287312 -0.00047983276 0.0002162628 -0.0005283556 0.00020209148 0.00031162
-0.00026873813 -0.00024807116 0.002170222 -0.00026034584 -0.0009156955 -0.00024970178 6.8070694e-06 0.00023592227
-0.00031252851 -0.00073573587 -0.00033443287 6.866554e-05 -0.000519981 0.0014354197 -0.0004779654 -0.0003170904
-0.0006378639 -0.0006266471 0.00070215587 -0.00015157367 -0.00032468626 -0.000762158 -0.0006530072 1.134426e-05
0.00033148535 -0.00037568356 -0.00047032576 -0.00012997849 -0.00040035413 -0.00032691393 6.210445e-05 -8.637243e-05
0.00047641565 9.604563e-05 -0.00024535417 -0.00042473868 9.4992545e-05 -0.00025419716 -7.3839044e-05 -6.9747664e-05
0.00012966387 4.5150464e-05 0.0006398346 0.00095235393 0.00041205142 7.606153e-05 0.0005273928 0.00063866726

running_mean f4 [290]
00000000: ea8f 25be 025f e63d 925c 273f 63e5 583e
00000010: 61db 8b3d e4ec c6bc 78f1 15be 05ce b5be
00000020: 2c44 c5be e842 32be ca54 6dbe b92c 4a3e
00000030: 63f3 813e c03e c73d b815 b93a a2dc 85be
00000040: a5ea 543e 8b82 bf3d 0f36 8f3e 9e18 4bbd
00000050: 1094 fa3e 04c6 e8bc f727 b43d 43c1 23bd
00000060: cd19 05be 5651 243e 7485 90be a1bb 65bd
00000070: 7ed1 82be 051e ab3e 00ca bd3e 0a41 1cbe
00000080: 1b3c a0be 2592 933e 2c5e 163f efc8 713d
00000090: a96c e8bd d301 4bbe 43fa b1bd a64b 083d
000000a0: 4e65 413e 1cee 4e3e 41d4 18bd c4ab 783d
000000b0: 5d95 323e 4493 a33e ad97 173e 821b 7d3c
000000c0: 6097 8d3d 0800 55be 66f0 3d3d 63ac 0cbd
000000d0: 2a2a 30bf 4aea 2bbf bf40 48be ecf6 57be
000000e0: 097e a43e 74d2 e3be a22e a73e c10e cabe
000000f0: e2e7 8c3e dd87 88be 524e 9fbe 1e12 823d
00000100: 9aa7 75bd 3ec2 923e d26f 7abe 0adb 5abd
00000110: d24f 983e 7e88 643e 2e38 4bbe 8ed0 5cbd
00000120: 23e6 fb3e de2d f13d a745 cabe c0f1 163e
00000130: fbd0 213e 97b8 7ebe 373b 743e 98a1 7fbe
00000140: 8347 ec3d e57c 233e 25e0 9a3e ab02 13be
00000150: f67c 28be 517f 223e 1e59 1f3f d4f3 ebbd
00000160: 3889 423e 1c67 6c3e ee44 dbbd 1023 b33d
00000170: 2960 8b3e 031c f73e 363c 263e ff9c 943e
00000180: d192 5d3d 569d 6abe f78b a13e 3083 46bc
00000190: 286c a3be 985f 96be b1a7 1e3e e627 38bc
000001a0: 2e2c c2be 6ff3 68be d7cf 56bd e616 243d
000001b0: 884c 0cbe bb74 853d 064d 343f 9ae3 b83d
000001c0: 7c94 173e a524 da3d d548 75bc 068e a7be
000001d0: 23b3 7dbe a58d 3c3e 6912 cc3e af05 64bd
000001e0: b58d 9e3c 8c3d 62be fab6 fc3d be28 943e
000001f0: aeb3 81be ca92 03bd a3db 7ebe 54e4 7d3d
00000200: f7f1 5b3e c1b3 b5bd ab95 563e 0384 06bd
00000210: fcec 05bf b19b 3dbd d276 b03d 3be5 26bd
00000220: 1ccb 91be af54 a63d 12f9 12bd c5a9 313d
00000230: 5fd8 0f3d 241a 783d 7fc5 bb3d 34cc 34bd
00000240: 1e95 21bc 22c4 8fbe bb88 bc3e 0684 dabd
00000250: c1f5 a9bd dd32 883e b8f7 1bbe 7295 be3e
00000260: 7b9d 793d 0334 a0be b564 3b3e bfb1 ce3d
00000270: 9c1f 43bf 737e f43a f9e3 e3be b6d5 f1bd
00000280: 6bdd 5d3d 8d32 69bd 5b68 dd3d b00c f53e
00000290: 9531 0b3e b799 1b3d b709 5cbe b556 a63c
000002a0: b654 afbe d170 77bd b0e1 dcbb d7c4 5abe
000002b0: 68ad aabd 7d88 f0bc b9e9 63bd 90ed 65bd
000002c0: 4c90 c23d 23ba 68be c70e a03e 4b69 923e
000002d0: 7156 b5be c1f3 813e 098a a9bd f9d3 1dbf
000002e0: 9d8d 153e 77a4 a3bd b80a f5bd 3410 223d
000002f0: 5818 ddbe 91fc fd3d 3101 7b3e ce81 703e
00000300: 416a b83e e9db 86be 87e3 233e 16ba a1bd
00000310: cf61 62be b97d 79be ccfd 9abe 374f 8e3b
00000320: 2ea1 833e d4d3 3dbe aafb b03e f2a0 87bd
00000330: b366 923e bdc7 98bd 1d2f 3e3c 44f0 563e
00000340: 80e2 993e 3c29 843e b94c d1bd 0cec f1be
00000350: 4b95 b1be 9c50 0fbe d57e 33bd eab4 5f3e
00000360: 50aa 913e 73b6 513e 5d04 87be 18cb d43e
00000370: 1643 babe 83f9 7e3d 2a22 b03e 16b7 c33e
00000380: 7b2b 44be 2edf 6dbe b62e 3bbe ceae 59be
00000390: 5630 903e 0346 eebe 455a b83e dcc2 ad3d
000003a0: 5aa9 11be 692e 07be b8e2 6cbb eb77 e93d
000003b0: f674 5ebe b743 85be b0d2 5fbe 55a9 c43e
000003c0: 90ee 2bbe 2e6f 103e c899 d8be 9edd 9fbe
000003d0: 9946 84be 7356 20bf 7247 253e 37d7 0abe
000003e0: ce9a 5b3e 37de 97be 1343 a43c 1bad 36bd
000003f0: 4c5b 21be c624 a43e e3e3 05be c3c7 dabd
-0.1616818 0.1124859 0.65375626 0.21181254 0.068289526 -0.02428288 -0.14642894 -0.35508743
-0.38528574 -0.17408335 -0.23176876 0.19743623 0.25381002 0.097287655 0.0014120853 -0.26144892
0.20792635 0.09351071 0.2797093 -0.049584024 0.48941088 -0.028414734 0.08796685 -0.03997923
-0.12998123 0.16046652 -0.28226817 -0.05608714 -0.25550455 0.3342134 0.37068176 -0.15259185
-0.31295857 0.28822437 0.58737445 0.059029516 -0.1134885 -0.19824915 -0.08690312 0.03327527
0.18886301 0.20208019 -0.037311796 0.060710683 0.1743979 0.31948292 0.14803953 0.015448453
0.06913638 -0.20800793 0.04637184 -0.03434409 -0.6881434 -0.6715437 -0.19555949 -0.21090287
0.32127407 -0.444965 0.32652766 -0.3946438 0.27520663 -0.26666155 -0.3111444 0.06351112
-0.05997429 0.2866382 -0.24456719 -0.05343155 0.29748398 0.22317693 -0.1984565 -0.05390983
0.49199018 0.117763266 -0.39506266 0.14740658 0.15802376 -0.24875103 0.23850714 -0.24963987
0.11537077 0.15965612 0.30249134 -0.14356486 -0.16453919 0.1586888 0.6224536 -0.11521116
0.18997657 0.23086208 -0.10706507 0.08746922 0.27221802 0.4826356 0.16233906 0.2902603
0.054095093 -0.22911581 0.31552097 -0.0121162385 -0.31918454 -0.29369807 0.15493657 -0.011239981
-0.3792433 -0.22749113 -0.052444305 0.0400609 -0.1370107 0.06516405 0.7043003 0.090277866
0.14802736 0.10651521 -0.014970978 -0.32725543 -0.24775366 0.18413408 0.39857796 -0.055669483
0.01935468 -0.22093791 0.123395875 0.28937334 -0.25332397 -0.03212241 -0.24888472 0.06198533
0.21479021 -0.08872176 0.20955531 -0.03284074 -0.52314734 -0.046291057 0.08616413 -0.040745955
-0.28475273 0.08121621 -0.035882063 0.043374795 0.035118457 0.060571805 0.09168529 -0.044140056
-0.009862212 -0.28079325 0.36823067 -0.10669713 -0.08298827 0.26601306 -0.15231216 0.37223393
0.0609412 -0.31289682 0.18300135 0.10092496 -0.7622011 0.0018653407 -0.44509867 -0.1180834
0.05416624 -0.056932975 0.1081092 0.47861242 0.13593133 0.03798839 -0.21488081 0.020305017
-0.34244317 -0.060410324 -0.0067407712 -0.21364151 -0.08333856 -0.029361958 -0.055642817 -0.05613476
0.09500179 -0.22727256 0.31261274 0.28595957 -0.35417512 0.25381282 -0.08278281 -0.6165157
0.14604802 -0.079903536 -0.11964935 0.039566234 -0.43182635 0.12401689 0.24512173 0.23487017
0.36018565 -0.26339653 0.16004764 -0.07896821 -0.22107624 -0.24364366 -0.30271757 0.0043429392
0.25708908 -0.18537837 0.34567004 -0.06622495 0.28593978 -0.07459972 0.011607912 0.20990092
0.30055618 0.2581271 -0.10219712 -0.47250402 -0.34684214 -0.13995594 -0.04382213 0.21846357
0.2845025 0.20479755 -0.26370516 0.41561198 -0.36379308 0.06224967 0.34401065 0.3822562
-0.19157211 -0.23229668 -0.18279538 -0.21258089 0.28161877 -0.4653779 0.3600637 0.08484432
-0.14224759 -0.13201298 -0.0036145877 0.11399826 -0.21724305 -0.26028225 -0.21857715 0.3841044
-0.16790223 0.14104912 -0.42304826 -0.31223768 -0.25835112 -0.6263191 0.16140535 -0.1355866
0.21445772 -0.29661724 0.020051515 -0.04459868 -0.15757483 0.32059306 -0.13075213 -0.10682633

running_var f4 [290]
00000000: b872 a93b 4156 e03b 49de 933d a8ee 313c
00000010: a27b be3b 30ca eb3b 1ce3 4b3c 8e13 f23c
00000020: ccb4 de3c 9425 f93b 7a92 473c 2533 363c
00000030: bd99 853c 7fac ef3b f6d9 ae3b 8f52 883c
00000040: f3f7 0e3c 2fd0 1d3c 114e 313c e743 033c
00000050: 34b0 563d f832 d73b 4285 f43b 6722 8b3b
00000060: 6047 133c 2e48 333c 5a13 553c a238 d63b
00000070: aa21 3f3c f831 783c 245f f53c 6469 3c3c
00000080: 4655 a63c b4a1 733c 8353 183d 2e58 ef3b
00000090: 2c5a ab3b 7b27 563c ed0e 073c 029a c73b
000000a0: 8688 573c 8b0d 3d3c 11e6 843b 1e21 fc3b
000000b0: 22d6 4c3c 8b32 ca3c 6a0c 6a3c 2fba 4b3b
000000c0: 2aa8 cc3b f7d6 823c 2911 ce3b 8616 3a3c
000000d0: 0ec5 bc3d 28e0 ba3d 6526 743c 2055 2a3c
000000e0: dd1d af3c d4fc 013d 6ed5 8e3c 4e8f c43c
000000f0: ee57 7a3c e754 853c 9175 a73c 3297 c33b
00000100: dc43 7f3b e9ce 9f3c 7994 5b3c c60c dc3b
00000110: da41 a43c 2681 153c e456 ba3b d856 2d3c
00000120: cff5 343d 78b3 f03b ef04 083d ab23 de3b
00000130: 0266 1e3c 3a31 003c 4efa 313c ddcb 423c
00000140: 5827 c83b 4e6c 193c dae5 a23c ab41 ce3b
00000150: 9aa0 283c 3461 973b 70c3 8e3d bfb2 1b3c
00000160: 0b17 c63b ddfc 953c 734f 4e3c 4173 0e3c
00000170: 8957 923c d129 233d 880f 153c c49b c53c
00000180: a719 aa3b 050f 553c 943d 853c 6730 b03b
00000190: 3889 573c f863 903c 7e73 1d3c 0845 8c3b
000001a0: 06e8 003d 260d a23c af6c c83b e49a 283c
000001b0: f815 8c3b ed3c 693b 3bf7 893d 7c20 c03b
000001c0: fd2b 023c 4c13 d33b f828 b13b 7193 983c
000001d0: 2f43 1f3c 42a4 a93b 4542 db3c 4c89 ae3b
000001e0: f939 b23b f300 153c 6ef8 493c 1bbf ab3c
000001f0: a091 9e3c 7191 263c efee 6e3c 7cc0 0f3c
00000200: 9b6a 073c b359 d03b bcb4 2c3c a2bd b83b
00000210: 4e4c 623d e2f8 c13b 673d 4a3c 4523 9a3b
00000220: f941 813c dc8c c03b c801 ae3b 6af8 da3b
00000230: 901c bd3b aaab ac3b 7e9c c23b a4eb a03b
00000240: 0592 183c 0e44 a33c cf5f 033d e48c c33b
00000250: a7f9 543b ca1b 713c 23c1 fd3b 1470 b93c
00000260: 0324 823b 1763 cf3c 3cee c63b 7bd5 be3b
00000270: f26a b53d 965e ac3b 55e6 453d fe0f c13b
00000280: 19b6 dc3b 85ab 223c 226b ae3b c42b 413d
00000290: 694d 503c 8027 ca3b 6aeb 533c ca1e f93b
000002a0: 899d 673c 5bcf dc3b 95b8 b63b 0a82 7a3c
000002b0: 39bb 6e3b 23ee c83b c45b ec3b b453 703b
000002c0: 7d8d 143c 6b56 3a3c ac35 f53c f9a8 703c
000002d0: f3b3 fa3c 4123 8d3c a98b 063c 30dc 533d
000002e0: 0685 ed3b 04e8 e43b 43a7 f63b 06d7 a93b
000002f0: 4a96 e33c 5c99 153c 2c7c 9b3c c3d3 603c
00000300: 3f71 a83c d6af a93c dc6f 303c ebce ce3b
00000310: 6315 263c 4417 9e3c d92e 8c3c cecb 4b3b
00000320: ae60 383c 0de2 283c c086 b23c 4d61 2b3c
00000330: 4dc0 e13c 4c3a e73b 58db 0c3c d524 033c
00000340: 8a2f a23c a2f2 8b3c 2d37 213c 329a 0c3d
00000350: 87a2 ac3c 3f43 e13b 5684 ff3b a5ce 323c
00000360: c787 053d aac3 4d3c 6d0d 323c 18b0 023d
00000370: cc16 a83c 1f99 a73b a0aa 873c 22a1 f83c
00000380: 38f7 2b3c d16e 8a3c 0e4a 063c e24a 233c
00000390: 7fd0 433c 92e5 ec3c bbeb 103d 7920 a63b
000003a0: 427d f53b 2c25 1c3c 47a2 763b dafe a43b
000003b0: 54b1 853c 7435 103c 285a 3c3c a85e 943c
000003c0: d74d f23b 4095 b03b ff58 fe3c 8206 803c
000003d0: 9024 a63c f170 723d 3488 d43b 2c51 0a3c
000003e0: 92ff 243c ce94 b53c 5c92 f53b bdb8 fc3b
000003f0: 0d60 5c3c 9724 e13c 3d7c 1d3c a455 273c
0.0051711462 0.0068462198 0.07220132 0.010860123 0.005813078 0.0071957335 0.012444284 0.02955034
0.02718582 0.0076033566 0.012180919 0.011120592 0.01630866 0.0073142643 0.0053360416 0.01664093
0.008726108 0.009632154 0.010821835 0.008011795 0.052414134 0.0065673552 0.0074621746 0.0042460444
0.008989185 0.010942502 0.013005102 0.006537513 0.011665741 0.015148632 0.029952593 0.011499736
0.020304333 0.014870096 0.037189018 0.007304213 0.005229255 0.013070936 0.008243305 0.006091357
0.013155108 0.011538873 0.0040557464 0.0076943776 0.012502225 0.024682304 0.014285186 0.0031086316
0.0062456327 0.015971644 0.0062886667 0.011357909 0.09217273 0.09124786 0.014901732 0.010396272
0.021376545 0.031735256 0.017435756 0.023994114 0.015279753 0.016275836 0.020441802 0.0059689516
0.003895036 0.019507842 0.013402098 0.00671539 0.020050932 0.00912503 0.0056866277 0.010579787
0.044179734 0.007345613 0.03320783 0.0067791543 0.009667875 0.0078242365 0.0108629 0.011889425
0.0061082058 0.009364201 0.019884992 0.0062944493 0.010292197 0.004619742 0.069708705 0.009503066
0.0060452274 0.018309051 0.012592184 0.008694471 0.017864006 0.0398348 0.009097941 0.024122126
0.0051910463 0.013004069 0.016264714 0.0053768638 0.013155274 0.017625794 0.009610055 0.00428069
0.031471275 0.01978166 0.0061164717 0.010290835 0.00427508 0.0035589293 0.067366086 0.0058632474
0.007945058 0.0064415094 0.005406495 0.018624993 0.009720608 0.0051770518 0.026764998 0.0053264257
0.00543904 0.009094465 0.012327297 0.02096515 0.019356549 0.010166512 0.014583333 0.008773919
0.008265163 0.006358349 0.010541137 0.0056378404 0.05524855 0.0059195617 0.012343741 0.0047039115
0.015778529 0.0058761667 0.005310271 0.0066824453 0.005771227 0.0052694874 0.0059390655 0.004910903
0.0093121575 0.019929912 0.032073792 0.005967723 0.0032497437 0.014716098 0.007743971 0.02263645
0.003971578 0.025315804 0.00607088 0.0058237887 0.08858289 0.005260299 0.048315365 0.005891799
0.006735575 0.009928589 0.00532283 0.04716088 0.0127137685 0.0061692595 0.012934545 0.0076025473
0.01413668 0.006738586 0.005576203 0.015289793 0.0036427511 0.0061319037 0.0072130878 0.0036670985
0.009066937 0.011373143 0.02993282 0.014688724 0.030603385 0.017228724 0.0082120085 0.05172366
0.0072485236 0.006985666 0.0075272634 0.0051831035 0.027781624 0.009130802 0.018980108 0.013722363
0.020561812 0.020713728 0.010768857 0.0063112876 0.010136935 0.019298203 0.017112182 0.003109682
0.011253519 0.010307801 0.02179277 0.01046021 0.027557516 0.00705651 0.0085972175 0.008004387
0.019798059 0.01708347 0.009839815 0.03432674 0.021073593 0.0068744714 0.007797758 0.010913526
0.03260019 0.012558857 0.010867459 0.031906217 0.020518683 0.005114689 0.016560853 0.030350272
0.010495953 0.016898545 0.008196367 0.009966584 0.011951565 0.028918061 0.03538106 0.005069789
0.0074917385 0.009530347 0.0037633346 0.0050352635 0.016319908 0.008801807 0.011496104 0.018111542
0.007394533 0.0053888857 0.031048296 0.015628103 0.020281106 0.05918974 0.0064859632 0.008442204
0.010070698 0.022165682 0.007494254 0.007712452 0.013450635 0.027483268 0.00961214 0.010213289

weight f4 [170, 290]
00000000: 6b46 b5bc cbe4 de3c e88a c53c 92d3 213c
00000010: 9a6a 50bb 1b40 f43c be55 46bd b358 49bd
00000020: c6eb 46bd d331 09bd 824d cdbc d346 b83c
00000030: 0dcd 913c beee 0a3d 6e39 283d 4203 99bc
00000040: 420c e03c 8b56 f43a 3285 30bd e675 513d
00000050: 2e7b 67bd 0cc6 463d b6f8 1a3d f975 283d
00000060: 3d7b 3fbc a815 1f3d 7c06 d0bc b8f7 cdbb
00000070: 35ef 0b3c cc59 5cbd 8dde bbbc 981f 1f3d
00000080: 7599 f7bc f364 e23c 7a79 053d be9b 02bd
00000090: cc82 eebb cd09 3d3c 94a0 a13c dbb6 3a3d
000000a0: f963 84bc 94cf 293c 3bab 693d 5b10 393c
000000b0: 1a79 5bbc 1d10 3e3d 14d4 94bc d674 22bc
000000c0: 9e03 6abd f002 5bbd 8f17 6c3d cfa6 213d
000000d0: b9a3 553c 12da 283d f565 10bd 104c 083d
000000e0: ee65 59bc 4abb 59bd f35e 5f3c e12d 3ebb
000000f0: 7f59 ec3b de6a 023d 3f06 02bb 1f58 b0bc
00000100: b1ed 263d cf11 26bd 8754 56bd e082 ac39
00000110: 66b8 66bd ffde 74bc 173b cebc 21f7 10bd
00000120: ec81 663c ad0c 183d 5ed8 3b3c 3a46 ca3c
00000130: ef46 4fbc daef 653d d73d 62bd 31ce 13bd
00000140: 021a b6bc beba 9b3c f96d d13c c7c3 dc3a
00000150: b6e8 41bd 54eb a8bc 3b42 0b3d abda a5bb
00000160: 2365 293a 23f1 d53c cb54 b4bc fde3 e83c
00000170: df30 253a 9f9f 4c3d b821 61bd 828b 20bd
00000180: 6024 2c3d b41c 11bd 1f91 133d 709f ab3b
00000190: 25c4 af3c 28fa f73c 1e3e 693b 93b2 333d
000001a0: 557f adbc b8ce dcbc c542 073d 8faa 123b
000001b0: d472 263d e480 1cbd 0da3 0bbd afa3 7e3c
000001c0: fa52 233d f026 903c 0742 603d 1d3c adbc
000001d0: 769b 513c d7db c63b a3fe 0e3d 2abb f33c
000001e0: 7d87 6b3d cde6 a83c 91da 5c3d 972b 8b3c
000001f0: 2c91 3d3d 4a06 473d 5d62 3fbd 567f 2bbd
00000200: fd27 2e3d e50a afbb 7ee5 58bc 2971 64bd
00000210: bccc dcbc e63c 56bd a430 b73c 1dcf 49bd
00000220: 0107 f33c 5018 d43c 1569 2cbb 540f 273d
00000230: d498 f33c 7d33 803c bf66 313c 1be4 283d
00000240: ff16 3ebd 1d5e 42bd 5194 0fbd 8a97 af3c
00000250: 323e 4b3d 1afc 493d f88e 9f3a 7064 113d
00000260: e612 8ebc 360c edba 0c1a 34bd 2866 593d
00000270: 892b 4c3c 0ca7 33bd a899 61bd 6406 5d3d
00000280: 81d9 1c3d 4727 b83c f0e0 693d f749 023d
00000290: 600b b43c 9bcf 4abd 0eb6 b0bc 0be8 083d
000002a0: 5413 6c3c c017 0f3d 7e06 76bc 30eb 42bd
000002b0: bbb3 8d3c beed 6bbd 0040 193d f898 a23c
000002c0: 18e0 67bd 09a7 1c3d 8ca4 733c 8d68 c2bc
000002d0: cd80 c8bc 8f7e 1f3d db48 2abd 4a9a 70bc
000002e0: c782 73bc 9d27 093d e8de c03c 1609 6bbd
000002f0: 89f3 043c de13 563c 3f73 21bd 5b67 6c3c
00000300: e041 163d 5fa0 393c 4ce4 563c 6701 02bc
00000310: 2aa0 61bd 6682 853c 18a3 67bd a4f0 593d
00000320: 55de e9bc 56c2 1b3d 267f 603d a1f0 4f3d
00000330: 31eb a5b9 a04a 8b3b 2f11 08bc 2a85 1dbd
00000340: 8164 3c3a 472b 033d 254b b23c 5990 13bd
00000350: fc89 583d b671 4aba f488 5f3d d4c6 c43b
00000360: f046 363b 7848 2c3c 4681 a4bc 00f3 5ebd
00000370: 79b2 9bbb 09df 193d 3f0a 5cbd 505b a0bc
00000380: 5ef6 98bc a205 12bd 4e9c 48bd 00e9 573d
00000390: 2828 133d 3ca0 fd3c e1f7 843c a370 b3bc
000003a0: 7689 44bb 33a0 bd3c 831f 1ebd 436c 43bd
000003b0: 7f9d bf3b beb7 053d d15d 2ebc b601 1e3b
000003c0: 4c77 e53c 2685 9f3b 025e 21bc 45c4 2e3c
000003d0: 26e0 653d 2cb8 243d 9675 11bd d6e1 55bd
000003e0: ed2c 373d eacd 973c dbce 3a3c 5d97 47bd
000003f0: dfa7 09bc dbfb 283d 1cfb 10bd e1a1 23bd
-0.022128304 0.027208706 0.024114087 0.009877102 -0.003180182 0.029815724 -0.048421614 -0.049156856
-0.048564695 -0.03349478 -0.025061373 0.02249471 0.017797971 0.03391909 0.041070394 -0.018678311
0.027349595 0.0018641514 -0.043095775 0.051137827 -0.056513958 0.048528716 0.037834845 0.041128132
-0.011687097 0.038839012 -0.025393717 -0.006285634 0.008540918 -0.053796574 -0.022933269 0.03884849
-0.030224541 0.027636027 0.032586552 -0.03188681 -0.007278776 0.011537981 0.01972989 0.04558454
-0.016160952 0.010364432 0.057048064 0.011295403 -0.013395572 0.046402086 -0.018167533 -0.009915551
-0.057132356 -0.0534696 0.057639655 0.03946572 0.013039523 0.041223593 -0.035253484 0.033275664
-0.013268931 -0.05315713 0.0136334775 -0.0029019045 0.007212817 0.031840198 -0.0019840149 -0.021526394
0.040754024 -0.040544327 -0.052326705 0.00032903906 -0.0563282 -0.014945745 -0.02517466 -0.03539193
0.014069062 0.037121464 0.01146516 0.02469169 -0.012651189 0.056136943 -0.055234756 -0.03608531
-0.022229198 0.019009944 0.025565134 0.0016843014 -0.04734107 -0.020620026 0.03399871 -0.0050614676
0.0006461909 0.02611596 -0.022013089 0.028429026 0.0006301533 0.049956914 -0.054963797 -0.039195545
0.042026877 -0.035427764 0.03602707 0.0052375123 0.021455834 0.030270651 0.0035590003 0.043871474
-0.02117888 -0.02695404 0.03302266 0.0022379493 0.040636852 -0.038208857 -0.034091044 0.015541955
0.039874054 0.017596692 0.05475047 -0.021146828 0.012793412 0.0060686874 0.03491081 0.029752333
0.05750226 0.020617867 0.05391938 0.016988559 0.046281025 0.048589982 -0.046724666 -0.041869484
0.042518605 -0.005341875 -0.013238309 -0.05577198 -0.026953094 -0.05230417 0.02236206 -0.049269784
0.029666426 0.0258905 -0.002630775 0.040786102 0.02973596 0.015649552 0.010827719 0.041233163
-0.04640865 -0.047453035 -0.035053555 0.021434564 0.04961986 0.04931269 0.0012173345 0.035496175
-0.017342996 -0.0018085304 -0.043970153 0.05307594 0.012461551 -0.04386048 -0.05507818 0.053961173
0.038293365 0.022479666 0.057099283 0.03180882 0.02197808 -0.049514394 -0.021571185 0.03342442
0.014408905 0.03493476 -0.015016196 -0.047587574 0.017297616 -0.057599775 0.03741455 0.019848332
-0.056610197 0.038245235 0.014870774 -0.023731494 -0.02447548 0.038939055 -0.041573387 -0.014685223
-0.014862723 0.033485044 0.02354379 -0.057381712 0.008114704 0.01306626 -0.039416548 0.014428939
0.036683917 0.011329739 0.013115954 -0.007934905 -0.055084385 0.01629753 -0.056552023 0.05320801
-0.028548399 0.03802713 0.05480876 0.05076659 -0.00031646484 0.0042508394 -0.008304878 -0.038457073
0.0007186607 0.032023694 0.021764347 -0.036026333 0.052865967 -0.0007722633 0.054573968 0.0060051475
0.0027813278 0.010515325 -0.020081174 -0.05443096 -0.0047515 0.03756622 -0.05372071 -0.019574791
-0.018672165 -0.035649903 -0.04897719 0.05271244 0.035926968 0.030960195 0.01623148 -0.021904295
-0.002998916 0.023147678 -0.03860427 -0.04771067 0.0058476324 0.032645933 -0.010642485 0.0024109907
0.028010987 0.0048681675 -0.009849073 0.0106669115 0.056121968 0.040214702 -0.03551253 -0.052217327
0.04472058 0.018530805 0.011401857 -0.048728336 -0.00840184 0.041255813 -0.035395727 -0.0399493

bias f4 [170]
00000000: 12f8 d0bc 7215 14bd 11da 643d e639 a4bc
00000010: cec9 9dbb d73a 313d 7b86 3dbd b9a3 6cbb
00000020: 25b6 683d 8fbb 1d3d 9900 453c beb0 3bbd
00000030: 5cac a63c 5d72 4c3d 380f cf3c c024 823c
00000040: 9848 b6bb f0d7 2ebc 34e2 dabc 8e81 2bbc
00000050: e28d 903c 318f 303d 4062 713b 00fd c7bc
00000060: ac94 8bbc 1ab7 17bd f261 d3bc ac25 7abc
00000070: d540 26bd 0429 8e3c 3584 513d e6b7 6cbd
00000080: 2177 083d 0700 0abd dd23 373d a470 4cbc
00000090: a93e 5a3d 77f5 3b3d cd06 563d f20f 5b3d
000000a0: 3fd5 41bd 61aa 183d 0189 403d 7024 3cbc
000000b0: 7a72 af3c 1cec ffbc f221 7cbc ec3c 933c
000000c0: eeed 14bc 797d 443d 2eb3 46bd d1dd 203d
000000d0: af93 4b3d 78b4 8d3c 1ebb 92bc 7053 a63c
000000e0: 20d0 4dbd d7e2 033d b114 03ba 20ec 46bc
000000f0: aafd b3bc 3664 eb3c d441 703c fcde fb3c
00000100: 7ca2 dabc f4a1 d4bc aa4e a8ba 3814 4bbc
00000110: d0d8 b2bb 10b5 48ba fa4e 3bbd 27c9 323d
00000120: 7188 283d b81c efbc 6a6b 2abc 076e 603d
00000130: 3f73 353d 2693 733c d855 2e3c b086 86bc
00000140: 3b8b 1d3d fff1 453d 3fa1 673d 034a 6b3d
00000150: 4152 04bd c351 fbbc cae4 d83c 9ae5 443c
00000160: 9e73 40bc 509b babc e5d1 52bd 411a 5e3d
00000170: 5e3f 3dbd 1871 b5bb 3217 d03b b2ce 67bd
00000180: a0d4 fabc 54e4 2fbd 3d0d 143d 6162 3f3d
00000190: 586d 653c 1972 6239 cf14 0d3d 80a8 6cbd
000001a0: 568d 23bd 8ac0 7d3c 906c 583c e6b0 b33c
000001b0: 9016 bfbc 88f9 fb3a 70af 20bd c935 b1bb
000001c0: 2580 65bd a2e0 cd3b 7927 63bd f321 3339
000001d0: 703f 573c 34d0 923c 6a4c e53c 6828 36bc
000001e0: 0dc4 fabc b699 87bc 7537 5b3d 0254 5dbc
000001f0: 9135 003d b88b 643c fffe 583d f219 453d
00000200: c8ec 2cbd e530 0a3d 7a00 bf3b 63b1 333d
00000210: 4976 493d 2eed 4d3d 4500 0fbd 160b 9cbc
00000220: 049a a13c 5023 763c 8ca0 d63b 9342 69bd
00000230: b577 edbc 4842 d4bc 7765 1a3d f620 8cbb
00000240: fd31 543d a0e7 bfbc 3a23 cc3c beeb 603c
00000250: 974e fcbc 8f75 24bd cb3c 3dbd 859e 093d
00000260: d08f 9a3c ddc4 2abd 768f b73c ac4e c13c
00000270: 6f4c 4d3b 88c2 423c 590d 54bd 2cbe 9fbc
00000280: 93f6 653d 7fd3 2ebd 77d2 13bd ed47 32ba
00000290: d27d 29bd 6d3b 45bd 9e66 ee3c 6c90 13bd
000002a0: 7212 f43b 2a2a 1ebd
-0.025508914 -0.036153264 0.055872027 -0.02004714 -0.0048153168 0.043269005 -0.04627083 -0.0036108328
0.05681433 0.038508948 0.012024068 -0.04582285 0.02034586 0.049913753 0.025275812 0.015886664
-0.005562853 -0.010671601 -0.02671919 -0.0104679 0.01764578 0.043105308 0.0036832243 -0.024412632
-0.017038666 -0.037039854 -0.02580354 -0.015267771 -0.040589172 0.017353542 0.051151473 -0.057792567
0.033316735 -0.033691432 0.044711936 -0.0124780275 0.053282414 0.04588839 0.05225258 0.053482004
-0.047322508 0.03727186 0.047005657 -0.011483297 0.021416891 -0.031240515 -0.015388953 0.017973386
-0.00908993 0.047971223 -0.048510723 0.03927404 0.04970139 0.017297968 -0.01791149 0.020303458
-0.05024731 0.032198753 -0.00050003367 -0.0121412575 -0.021971542 0.028734308 0.014664132 0.030745976
-0.026688807 -0.025956132 -0.0012840827 -0.012394957 -0.005457975 -0.0007656375 -0.045729615 0.043648865
0.041145746 -0.029188499 -0.010401586 0.05479243 0.04429936 0.014866626 0.010640584 -0.016421646
0.03846286 0.04832649 0.05655026 0.05744363 -0.032305006 -0.030678635 0.026476283 0.012017632
-0.011746315 -0.022779137 -0.051469702 0.054224256 -0.04620301 -0.0055371635 0.0063504213 -0.056593604
-0.030618966 -0.04294236 0.036145438 0.04672468 0.01400312 0.00021595544 0.034443673 -0.05777788
-0.03992971 0.015487799 0.013209477 0.021934938 -0.023326188 0.0019224146 -0.03922981 -0.005408023
-0.05603041 0.006282882 -0.055457566 0.00017083417 0.013137683 0.017921545 0.027990539 -0.011118032
-0.030611062 -0.016552787 0.053519685 -0.013508799 0.031301085 0.013949327 0.05297756 0.048120447
-0.042218 0.033738036 0.005828914 0.04387034 0.04918507 0.05027502 -0.034912366 -0.019048255
0.01972676 0.015023068 0.0065499004 -0.056948256 -0.028987745 -0.025910512 0.03769442 -0.00427639
0.051805485 -0.023425877 0.024919141 0.01372808 -0.030799193 -0.040151175 -0.046200555 0.03359844
0.018867403 -0.04169165 0.022407275 0.023597084 0.0031326076 0.0118872 -0.05177054 -0.01949986
0.056143355 -0.042682167 -0.036089387 -0.0006800879 -0.041379757 -0.048152376 0.029101666 -0.036026403
0.007448488 -0.03861443
